…
[2020-01-18 19:53:51] [Trainer] [INFO] Starting to pretrain generator with 1 epochs...
[2020-01-18 19:53:51] [Trainer] [INFO] Building `meena_cartoon` dataset with domain `A`...
[2020-01-18 19:53:51] [Trainer] [INFO] Found 10603 domainA images in trainA folder.
[2020-01-18 19:53:51] [Trainer] [INFO] Initializing generator with batch_size: 8, input_size: 256...
Model: "Generator"
_________________________________________________________________
Layer (type)                 Output Shape              Param #   
=================================================================
FlatConv (FlatConv)          (8, 256, 256, 96)         7298      
_________________________________________________________________
DownShuffleUnitV2 (DownShuff (8, 128, 128, 192)        29384     
_________________________________________________________________
DownShuffleUnitV2 (DownShuff (8, 64, 64, 384)          114056    
_________________________________________________________________
sequential_15 (Sequential)   (8, 64, 64, 384)          603696    
_________________________________________________________________
UpSampleConv (UpSampleConv)  (8, 128, 128, 192)        93222     
_________________________________________________________________
UpSampleConv (UpSampleConv)  (8, 256, 256, 96)         23574     
_________________________________________________________________
sequential_20 (Sequential)   (8, 256, 256, 3)          7203      
_________________________________________________________________
activation (Activation)      (8, 256, 256, 3)          0         
=================================================================
Total params: 878,433
Trainable params: 878,433
Non-trainable params: 0
_________________________________________________________________
[2020-01-18 19:53:54] [Trainer] [INFO] Setting up optimizer to update generator's parameters...
[2020-01-18 19:53:54] [Trainer] [INFO] Try restoring checkpoint: `training_checkpoints/pretrain/pretrain_generator`...
…
